…
erbose=0)\nprint('Test loss:', score[0])\nprint('Test accuracy:', score[1])\n","user":"admin","dateUpdated":"2019-06-18T06:52:22+0000","config":{"colWidth":12,"enabled":true,"results":{},"editorSetting":{"language":"python"},"editorMode":"ace/mode/python","editorHide":false},"settings":{"params":{},"forms":{}},"results":{"code":"SUCCESS","msg":[{"type":"TEXT","data":"_________________________________________________________________\nLayer (type)                 Output Shape              Param #   \n=================================================================\nconv2d_2 (Conv2D)            (None, 26, 26, 32)        320       \n_________________________________________________________________\nmax_pooling2d_1 (MaxPooling2 (None, 13, 13, 32)        0         \n_________________________________________________________________\ndropout_1 (Dropout)          (None, 13, 13, 32)        0         \n_________________________________________________________________\nconv2d_3 (Conv2D)            (None, 11, 11, 64)        18496     \n_________________________________________________________________\nmax_pooling2d_2 (MaxPooling2 (None, 5, 5, 64)          0         \n_________________________________________________________________\ndropout_2 (Dropout)          (None, 5, 5, 64)          0         \n_________________________________________________________________\nconv2d_4 (Conv2D)            (None, 3, 3, 128)         73856     \n_________________________________________________________________\nmax_pooling2d_3 (MaxPooling2 (None, 1, 1, 128)         0         \n_________________________________________________________________\ndropout_3 (Dropout)          (None, 1, 1, 128)         0         \n_________________________________________________________________\nflatten_1 (Flatten)          (None, 128)               0         \n_________________________________________________________________\ndense_1 (Dense)              (None, 256)               33024     \n_________________________________________________________________\ndropout_4 (Dropout)          (None, 256)               0         \n_________________________________________________________________\ndense_2 (Dense)              (None, 10)                2570      \n=================================================================\nTotal params: 128,266\nTrainable params: 128,266\nNon-trainable params: 0\n_________________________________________________________________\n2019-06-18 05:49:03.453282: I tensorflow/core/platform/cpu_feature_guard.cc:141] Your CPU supports instructions that this TensorFlow binary was not compiled to use: AVX2 FMA\n2019-06-
…
